model_weights.pth (torch, 125028 bytes, 6 tensors)

0.weight f4 [12, 1, 5, 5]
000000 0a 5d cb bd 29 e3 bc be e9 de 2a be 21 83 aa 3d
       -0.09929855 -0.3689206 -0.16686596 0.08325792
000010 38 70 08 3f 9c c1 b6 bd 34 85 56 bf 60 9f dd be
       0.5329623 -0.08923647 -0.83797 -0.43285656
000020 5a 52 27 3e d3 12 01 3f 5a 78 81 3d 0a 74 75 bf
       0.16340008 0.5041935 0.06321783 -0.95880187
000030 96 7f 4f bf f5 df c8 bd e0 5f 13 3f e9 1f ee 3e
       -0.81054056 -0.098083414 0.5756817 0.4650872
000040 f2 6f 34 bf 7f 52 89 bf c6 50 b2 be c0 2f d5 3e
       -0.70483315 -1.0728301 -0.3482725 0.41637993
000050 3a 8d 30 3f e7 19 29 3d c6 dd 30 bf 3d 7c 35 bf
       0.68965495 0.041284468 -0.690884 -0.708927
000060 67 fb a3 be 5e bc 5f 3d be 4a 75 3e 20 06 35 3e
       -0.32027742 0.054623 0.23954293 0.17678118
000070 b5 a6 90 3e 4e d1 34 3e 82 65 42 3e e3 4c e5 3e
       0.28252187 0.17657968 0.18984035 0.44785222
000080 e3 1c cf 3e 4f 68 a6 3e a8 25 60 3e e6 44 69 3e
       0.40451726 0.32501456 0.21889365 0.22780189
000090 4d 7c ab 3e 2e 13 73 3d b4 ac 31 be ed 83 60 be
       0.3349327 0.059344463 -0.17351037 -0.21925326
0000a0 ca b7 45 3e d6 c6 4e 3c 50 49 95 be 66 b7 fd bd
       0.19308391 0.012620648 -0.29157495 -0.12388496
0000b0 77 ba dc bd be 53 86 be 21 ea ed be 7f 91 71 be
       -0.10777753 -0.26235765 -0.4646769 -0.23590659
0000c0 8a 07 b6 be 1f ae 4e 3d fb 19 c2 bd fd ea 37 3e
       -0.35552627 0.050459024 -0.09477612 0.17960735
0000d0 93 d2 62 bd b4 a2 56 bc 8a c4 14 be d8 9c 6b be
       -0.0553766 -0.013100315 -0.14528099 -0.2300905
0000e0 dc 48 66 be 9f 68 03 3e ab bd 5d be 2c eb b2 3d
       -0.22488731 0.12832879 -0.21654384 0.08736262
0000f0 9b 06 a6 be b2 21 98 be 2d 93 0c 3c 24 ea f8 bd
       -0.32426915 -0.29713207 0.008580011 -0.12154034
000100 58 b8 bc bd a0 ac ac 3d c8 05 07 3e 88 43 f9 bb
       -0.09214848 0.08431363 0.13185799 -0.0076069273
000110 fb 6f 1a be df 3d a9 bc a5 65 47 be 7a 38 c6 3d
       -0.1508178 -0.020659385 -0.19472368 0.09678741
000120 db e3 05 be 74 cb 10 be f7 2e 11 be b1 e8 23 be
       -0.13075201 -0.14140111 -0.14178072 -0.16006733
000130 f5 bf 23 3e 69 97 79 3d 7f e9 b5 3d a0 94 7d be
       0.15991195 0.06093541 0.088824265 -0.24763727
000140 a5 4b 7f 3e b8 d6 92 3e 6b 54 c8 3e 1f 7a 38 3e
       0.249312 0.28679442 0.39126906 0.18015336
000150 f9 d7 64 be f0 3e 5c be 1a dc cf 3d 30 ff 59 3e
       -0.22348012 -0.21508384 0.10149403 0.21288753
000160 6f 47 c7 3d 54 18 89 3d 3c a9 15 bf 68 05 c4 be
       0.09730422 0.06694093 -0.58461356 -0.38285375
000170 8b 57 69 3d 6e 98 63 3e 40 2c a5 3d de 81 94 be
       0.056968253 0.22226116 0.08065081 -0.2900533
000180 be 29 c3 be 35 21 b5 bc 76 21 22 3e c0 55 3c 3e
       -0.38117784 -0.02211056 0.15833077 0.18392086
000190 3d ae 10 bf 84 cc 21 bf a0 4c 9e be 5a 25 a0 bd
       -0.56515867 -0.6320269 -0.30917835 -0.07819624
0001a0 26 81 b3 3e b1 d7 0e bf 57 f4 8a be 2a d2 87 bd
       0.3505947 -0.5579787 -0.27139542 -0.066318825
0001b0 4a 12 c1 3e 75 fd e4 3e e7 27 d5 be d1 a3 0c bd
       0.37709266 0.44724622 -0.41632006 -0.034335915
0001c0 1c 93 95 3e c4 66 59 3e 9c ff a6 3e 4e 93 da 3d
       0.29213798 0.21230608 0.3261689 0.106726274
0001d0 e1 37 07 3c 34 47 fa 3d 8b 1c be 3d 2a 11 2f 3e
       0.008253069 0.12220612 0.09282788 0.17096391
0001e0 75 58 37 3e b5 52 df bb e5 78 2d 3e e8 b4 dd 3d
       0.17904837 -0.0068152794 0.16940649 0.10825521
0001f0 22 b3 e5 3d 8d 1f ff be 93 61 0d be fb 66 ed 3d
       0.112158075 -0.4982876 -0.13806753 0.115919076
000200 2f 7e 70 3e 0c 5a 64 3d da 11 30 be e6 5b 4e 3e
       0.23485635 0.055749938 -0.1719431 0.20152244
000210 c4 2b a9 3e 4a da 86 3e 97 c8 8c be 4d 1e 54 bd
       0.33041203 0.26338416 -0.27496788 -0.05178671
000220 b1 3c 74 bc b2 3b 36 3e eb dd 0e 3e e7 47 7c be
       -0.014907048 0.1779621 0.13951842 -0.24636804
000230 0e c0 ef bd 2b d0 81 3e f6 9b a7 3e 47 b8 58 3e
       -0.117065534 0.25354132 0.32736176 0.21164046
000240 b1 59 98 be 9c 00 9f bd 53 3e 99 3e 3f 83 8c 3d
       -0.2975593 -0.07763788 0.29930362 0.06860971
000250 98 93 72 be 27 34 78 be aa a2 eb bd 44 8b b6 bc
       -0.23689115 -0.24238645 -0.11505635 -0.022283204
000260 84 be 6a be 50 51 08 bf 65 90 0d bf 3a 7d 80 3e
       -0.22924238 -0.53249073 -0.55298454 0.2509554
000270 36 3a aa 3e 17 fb 09 3e bb 18 1d 3e 1a e4 3d 3e
       0.33247536 0.1347469 0.15341465 0.18544045
000280 3a 22 65 bd 89 20 90 3e d2 f5 0d 3f 30 31 05 3f
       -0.055940844 0.28149822 0.5545322 0.5202818
000290 dc 6a 80 3e 22 d2 bb bc 14 1a 37 bd 43 d2 1a bd
       0.25081527 -0.022927348 -0.044702604 -0.037798177
0002a0 ba 35 44 3e ec 23 9f 3d 43 54 01 bf ca 05 a4 be
       0.1916112 0.077705234 -0.505192 -0.32035667
0002b0 5a 5e bd be 88 50 2c be ff 70 92 3e e9 05 9a be
       -0.36986047 -0.16827595 0.28601834 -0.30082634
0002c0 3d f2 8d be d3 e3 81 bd af df f8 bd 9f e0 07 bd
       -0.27723876 -0.06342282 -0.12152039 -0.0331732
0002d0 38 79 0f be 73 b5 89 bd 31 83 a5 be cd e9 85 be
       -0.14011085 -0.06724062 -0.32326654 -0.26154938
0002e0 87 d5 36 be cf 59 a9 bd 27 58 df bd 08 da 4c be
       -0.17854892 -0.08269083 -0.109054856 -0.20005047
0002f0 12 9a 36 be ef b2 c9 bd da 5f 9a be 63 e2 14 be
       -0.1783221 -0.09848582 -0.30151254 -0.14539485
000300 33 32 77 be 29 b9 3f be f9 b2 96 be 71 00 94 3d
       -0.24140243 -0.18722977 -0.2943342 0.07226647
000310 77 91 b2 be 7c ba cb be c4 82 26 bd 25 49 8d be
       -0.34876606 -0.39790714 -0.04065205 -0.27594867
000320 6b f2 29 3e 3d 1f 38 3d 2a b3 5d 3e c6 37 90 3e
       0.16596381 0.044951666 0.21650377 0.28167552
000330 1f 35 13 3f 36 09 bd 3e c0 f7 d4 3e ba b2 bc 3e
       0.5750293 0.3692109 0.41595268 0.36855108
000340 96 60 03 3f 4d 5e 3d 3e e5 d6 f8 bd cf ff 13 bd
       0.51319253 0.18493004 -0.12150363 -0.03613263
000350 35 b5 c3 3d 50 51 fa 3d 68 5e 64 3d 86 3a 2c bf
       0.09556047 0.122225404 0.055754095 -0.672768
000360 3d 4a b3 be de 9d ca be e8 97 d2 be 5b 3c 7c bf
       -0.35017577 -0.39573568 -0.4113152 -0.98529595
000370 c8 db 46 bf be 83 0a bf a5 93 85 bf d7 b6 41 bf
       -0.7767911 -0.5410727 -1.0435683 -0.75669616
000380 d8 40 0e bf e8 26 2e be bc 65 b0 be f2 60 91 be
       -0.55567694 -0.17007029 -0.34452617 -0.28394276
000390 b6 62 ec be c1 03 49 3d 75 2e ff 3d 83 7a dd bd
       -0.4616906 0.049075846 0.12460033 -0.10814383
0003a0 9e 7c 84 be 8a ae 2e bf 7a 18 8c bf 04 86 db 3e
       -0.25876325 -0.68235075 -1.094497 0.42875683
0003b0 43 d8 02 3f 57 2c 0c 3f 5b 54 db 3e f0 48 33 be
       0.5111124 0.5475516 0.42837796 -0.17508292
0003c0 22 d1 d4 3d d3 b2 ff 3d 3f e3 d9 3e be a4 c4 3e
       0.103914514 0.1248528 0.42556188 0.38406938
0003d0 e1 c9 3c 3e c7 06 97 be 67 ea 86 be 4c 2a 76 bd
       0.18436386 -0.29497358 -0.2635071 -0.06009893
0003e0 8a 9c a3 3d ab 1b 38 3e 3f 79 96 3e b3 f7 cd 3e
       0.07988842 0.17979304 0.29389378 0.40228042
0003f0 9e 2c b2 3e 1b 6b a8 bd e9 ba d8 be 6b 7e 35 bc
       0.34799665 -0.08223554 -0.423301 -0.011077504

0.bias f4 [12]
000000 b2 8a ef 3e d0 90 a4 bd 2e 0a a3 bd ac 13 11 be
       0.46785504 -0.08035433 -0.07960926 -0.1416766
000010 88 65 5e be d8 73 80 bd 0e 44 c1 bd 52 3f 3d be
       -0.21718419 -0.062720954 -0.094368085 -0.18481186
000020 a9 6c 68 3e df a7 11 be 86 69 d0 bc 6d 60 62 be
       0.226977 -0.14224194 -0.025440942 -0.22107096

3.weight f4 [64, 12, 5, 5]
000000 70 13 ea 3d f6 8f 48 3e e5 f9 25 3e 5a ad 66 3d
       0.11429489 0.19586167 0.16208608 0.056317665
000010 df a8 97 3e c7 bb 46 3e 28 6d 98 3e 61 89 79 3d
       0.29621026 0.19407569 0.2977078 0.06092203
000020 db 19 1f be c0 67 9c be 57 03 73 bd 93 c1 7c be
       -0.15537207 -0.30547905 -0.059329357 -0.24683218
000030 be e9 45 be 73 df 27 be c2 74 a7 be 8c 82 24 be
       -0.19327447 -0.16393833 -0.32706267 -0.16065425
000040 ae b4 01 bf cd 1c a7 be bd 77 bf be 4f 25 3b bf
       -0.5066632 -0.3263916 -0.3739604 -0.73103803
000050 a2 d4 0d 3d c6 fc 48 be 86 5f 3d be 8d 23 c3 be
       0.03462661 -0.19627675 -0.1849347 -0.3811306
000060 84 ae f8 be 29 a0 b8 3d 7e b1 d9 3d cc 7c b0 3d
       -0.48570645 0.09014923 0.10629557 0.08617553
000070 b1 16 42 3e 2d 8e ec 3d 3c 5b 41 be 61 57 fa bd
       0.18953969 0.115505554 -0.1888246 -0.122236975
000080 f0 fc 93 bd f1 08 c6 3b fa e0 dc bd 26 54 a4 be
       -0.072259784 0.0060435464 -0.107850984 -0.3209545
000090 e7 dd 95 be cb 40 6d be 99 5b a7 bd 17 9e 26 bd
       -0.2927086 -0.23169248 -0.08171768 -0.04067811
0000a0 24 b5 3d be b7 c5 2b bd 94 10 87 bd dc cd da 3d
       -0.18526131 -0.041936602 -0.06594959 0.10683796
0000b0 cd 48 93 3d 02 77 b1 3d 51 0f 01 3e ca 9c 2d 3e
       0.0719162 0.08665277 0.12603499 0.16954342
0000c0 19 17 17 3e d2 06 a6 bc 4e a6 29 bd aa 48 2f 3d
       0.14754905 -0.020266924 -0.041418366 0.042793907
0000d0 c8 2c e5 3c a0 12 c6 3b b0 07 1d 3c d6 8a dc bc
       0.027975455 0.0060447007 0.009584352 -0.02692167
0000e0 7a 47 ea bc b8 25 55 3c ce e9 35 3d 74 f8 49 bc
       -0.028598536 0.013009481 0.044412427 -0.012327302
0000f0 90 30 f3 3b 60 c1 72 3b 88 3b 1d 3c 00 ef 74 39
       0.0074215606 0.003704153 0.009596713 0.00023358688
000100 e0 69 be 3c cc 44 b5 3c b0 82 2d bb 50 e6 32 3b
       0.023243845 0.022127531 -0.00264756 0.0027297921
000110 c0 71 18 bd e8 06 c4 bc 00 ab 06 b9 d2 3f 31 3d
       -0.037217855 -0.023929074 -0.00012842938 0.043273754
000120 48 be 72 bc 7e ab 21 3d 25 00 65 bd 06 6e b0 3d
       -0.014815874 0.03947019 -0.05590834 0.08614735
000130 89 b4 27 3d 4f cd 35 3d a6 03 f5 3d 35 70 d2 3d
       0.040943656 0.04438525 0.119635865 0.10275308
000140 d3 f2 34 bd 98 13 43 bd 8a ae a4 bd 0d 68 32 3d
       -0.044176888 -0.047626108 -0.08041103 0.04355626
000150 7b 1f f1 3c 8a 81 21 be 07 3e 39 bd 1c 8c 2d be
       0.029433956 -0.15772071 -0.04522517 -0.16947979
000160 87 56 10 be e7 72 b1 bd 10 b5 64 bc 01 63 a0 3c
       -0.14095508 -0.08664494 -0.013959184 0.019578459
000170 38 25 3d be 0a 10 41 be 92 3b 97 3d af d9 6e 3d
       -0.18471229 -0.18853775 0.07384409 0.058313068
000180 f5 70 f7 3d 19 4f bd 3d 3c 72 ec 3c c2 71 6e bd
       0.12082092 0.09243602 0.028863065 -0.058213957
000190 fd 79 e8 bd 03 4b af bd d5 9f a4 bb 4a 87 22 be
       -0.113513924 -0.08559229 -0.0050239363 -0.15871921
0001a0 86 b8 6e be 70 96 77 be b5 92 40 be f5 9b 7a be
       -0.23312578 -0.24178481 -0.18805964 -0.24473555
0001b0 63 37 c0 bd df 93 56 3d 25 2b 2c be 0b 1c f4 bd
       -0.09385564 0.052387115 -0.16813333 -0.11919411
0001c0 5d 8c 90 bd 49 59 b0 3d 81 9c 0e 3e dd 3b 69 3d
       -0.07058022 0.0861078 0.13926889 0.056941856
0001d0 0d 22 2c 3e 54 8e 2a 3e d4 e0 ca 3d 84 38 08 bd
       0.16809864 0.16655856 0.09906164 -0.033257023
0001e0 e2 9d fb 3c 52 17 d0 3d f1 0a 04 3c bf 3e bd bd
       0.030714933 0.10160698 0.008059249 -0.092404835
0001f0 cf d4 2b be 65 c1 ee bc fa af 92 bd d7 66 ab 3d
       -0.16780399 -0.029144952 -0.07162471 0.083692245
000200 33 15 e8 3d 22 8b 2e be 2d 89 75 be bc da 96 be
       0.113321684 -0.17045262 -0.2397811 -0.29463756
000210 79 f3 f7 bd 98 53 fd bd 1c 21 28 be 7b 20 7c be
       -0.121069856 -0.1236946 -0.1641888 -0.24621765
000220 68 f6 29 be a7 b5 23 be f1 7c 94 bd 11 68 8b 3d
       -0.16597903 -0.15987264 -0.07250393 0.068069585
000230 0b c5 ca bd bf 26 5b 3d d4 e9 cf 3d 7c d3 ca 3d
       -0.09900864 0.053503748 0.10152021 0.09903619
000240 78 f6 a5 3d b2 2c a1 3d 42 56 68 3e 65 e5 2b 3e
       0.08103651 0.07869853 0.22689155 0.16786726
000250 2a b3 22 3d 37 b1 a9 bd f8 ec b1 bc 9d 0e c7 3c
       0.039721645 -0.08285754 -0.02171944 0.02429896
000260 9e ea 41 3d d7 b0 d0 bc 58 ed e3 3c d6 aa 2b be
       0.04734289 -0.025474949 0.027823135 -0.16764387
000270 fc 3a a1 bd 44 73 db bd bb 05 6e be c9 0a 44 bd
       -0.078725785 -0.107153445 -0.23244374 -0.047861848
000280 4e 16 85 bd ed 34 ad bd 28 de 79 be e3 ab e2 bd
       -0.06498395 -0.084573604 -0.24401152 -0.11067941
000290 42 5c ad 3d ad b0 e6 3d 7e 1a e7 3d 6c b0 10 3e
       0.084648624 0.11264167 0.1128435 0.141298
0002a0 77 2c 00 3d dd 5d 24 3d 56 80 47 3e f7 e3 56 3e
       0.031292405 0.040128578 0.1948255 0.20985399
0002b0 4e 9b 8e 3d f5 dc 3a bc 9e f5 23 bc c8 27 fd bc
       0.06963216 -0.011405219 -0.01000729 -0.030902758
0002c0 70 53 9b bb 11 49 51 bd 1c 40 43 3d f4 6d 11 3d
       -0.004740171 -0.051095072 0.04766856 0.03550525
0002d0 b0 53 f0 3b ee f2 18 3d 84 16 9f bc fa 68 b8 bc
       0.007334195 0.03734105 -0.019419916 -0.022510994
0002e0 00 3f a5 bc 37 c4 5d bd d9 e0 25 bd 76 67 f0 bc
       -0.020171642 -0.054142203 -0.040497635 -0.029346209
0002f0 64 c7 42 3d 81 f6 5f bd 68 cf 5b 3c 64 2b 8e 3c
       0.047553435 -0.054678444 0.013416149 0.017354675
000300 28 87 d7 bc 1c 8e 07 3d e0 fc 26 bd ac 16 ba 3c
       -0.026309565 0.03309451 -0.040768504 0.022715889
000310 fc 67 01 bc 5a fd 4f 3d d6 0d 45 3d d6 3d 90 bc
       -0.007898327 0.050778724 0.048108898 -0.01760761
000320 4f 37 91 3e 5f d9 91 3e 97 1c 5e 3e 21 0b 8e 3e
       0.2836251 0.28486153 0.21690594 0.27742866
000330 0c 00 12 3d 13 8d b4 3e ef 35 d3 3e 74 78 bc 3e
       0.035644576 0.3526388 0.41252086 0.36810648
000340 5f 9a 27 3e 0d 72 f0 be 26 a8 19 3e d6 9c b1 3e
       0.16367482 -0.46962014 0.1500555 0.3468997
000350 bc 3b 90 be 26 2c 60 be 9d d4 f5 3c ad 4e f9 bd
       -0.28170574 -0.21891841 0.030008608 -0.12173209
000360 5b bd 03 be 2b c4 68 be 85 11 d8 3d ed 21 a1 3e
       -0.12865202 -0.22731082 0.105502166 0.31471196
000370 af c5 9b 3e 4f 3c 41 3d c5 c5 dd bc 88 db a3 b9
       0.30424258 0.047176655 -0.027071843 -0.00031253346
000380 06 a8 08 bc b7 3b 1c be 50 d5 9f be dc f6 b8 be
       -0.008340841 -0.15257154 -0.31217432 -0.3612584
000390 42 73 05 bf bb df db be fd 00 7e 3e f6 19 41 3d
       -0.52128994 -0.4294413 0.24805064 0.0471439
0003a0 ef c1 04 bf 40 73 b1 be b2 42 ea 3d ef bc 98 bc
       -0.5185842 -0.3465824 0.11438502 -0.018644778
0003b0 af b8 a5 3d ae e3 10 3e 0a b9 ae 3d f0 cc 34 3e
       0.08091866 0.14149353 0.08531387 0.17656302
0003c0 c2 81 8b bd 7e de df 3d a8 3f 69 3e 0f 9c 8a 3e
       -0.06811859 0.10931109 0.22778189 0.27072188
0003d0 77 58 48 3e 5d ac 5f bd 3b e7 95 bd a4 d9 87 be
       0.19564997 -0.054607738 -0.07319494 -0.26533234
0003e0 cd 9b 7d 3d b6 27 8a 3d 3e ff bf 3c e3 45 df 3c
       0.06191616 0.067458555 0.023437139 0.027255004
0003f0 52 ec 64 3d 06 ce 8c 3e 87 f0 03 3e 1e a3 3a be
       0.055889435 0.27500933 0.12884723 -0.18226287

3.bias f4 [64]
000000 43 e9 e4 bd b0 2c d9 bd 78 9a cf bc e5 24 c9 bd
       -0.11177304 -0.106042266 -0.025342211 -0.0982149
000010 99 59 55 be 89 3c 92 be 88 2b e1 3c 5a cf 9a bd
       -0.2083496 -0.2856181 0.027486578 -0.075590804
000020 40 46 f0 bd 8d cb 5f bd 9e 55 77 be be fd 96 bd
       -0.11732149 -0.05463748 -0.24153754 -0.07372616
000030 a4 b0 c2 bd c5 23 e5 bd c0 b2 c3 bd 50 2d 07 be
       -0.09506348 -0.11188463 -0.09555578 -0.13200879
000040 01 97 32 be f7 92 e0 bd b8 a3 23 be e9 d4 d1 bd
       -0.17440416 -0.10965531 -0.15980422 -0.102456875
000050 b9 24 01 be dd 6e f9 bc e4 5f 12 be 09 e3 97 bd
       -0.12611665 -0.030448372 -0.14294392 -0.074163504
000060 d5 33 d5 bd 60 59 61 bd 8c de fc bc 19 0f 47 be
       -0.10410277 -0.055016875 -0.030867837 -0.19439353
000070 74 a8 56 bd f2 2b 9c bc 08 ac 07 be fe 40 19 be
       -0.052406743 -0.019063924 -0.13249218 -0.14966199
000080 09 ed 7d ba ed a0 45 bd b9 a0 3d bd d9 5b 1b bd
       -0.0009686505 -0.048249174 -0.046295855 -0.03792939
000090 b4 2f 24 3d 12 db c1 bd b8 f6 ef bd 18 b6 de bd
       0.040084556 -0.094656125 -0.1171698 -0.108745754
0000a0 31 26 fb bd 00 86 ff bd f4 0e 9e 3d 31 71 ca 3a
       -0.12263144 -0.1247673 0.07717696 0.0015445111
0000b0 5b 53 80 bd 52 cc bb bd ba 73 45 be 37 b3 4f bd
       -0.06265899 -0.091698304 -0.19282427 -0.050708022
0000c0 af 60 95 be 47 d3 c7 bd 1d ce ce bd 44 1a 34 be
       -0.29175326 -0.09757095 -0.10097907 -0.17588145
0000d0 a0 98 bb bd fd 50 c4 bd 0d 4d 6f bd fa f2 96 bd
       -0.0915997 -0.0958576 -0.05842309 -0.07370563
0000e0 fd ef db bd 59 ae cb 3d e3 ae f8 bb bf 31 db bd
       -0.107391335 0.099453636 -0.0075892075 -0.10702848
0000f0 52 ca 95 bd 34 ad 46 be 97 0e cd bd e0 0e d7 bd
       -0.0731398 -0.19402009 -0.100125484 -0.10500884

7.weight f4 [10, 1024]
000000 53 a9 72 3d c9 e4 59 3d 73 9f 78 3e 94 99 95 bd
       0.05924351 0.053196702 0.24279575 -0.07304683
000010 ee 72 b3 3d de c1 9d bd d5 7e cc be d7 6e 5b be
       0.087621555 -0.07702993 -0.39940515 -0.21429001
000020 6f c3 e8 be 62 23 be bd c5 5f 11 bd 60 50 78 3d
       -0.45461604 -0.092840925 -0.035491724 0.060623527
000030 9c 69 a2 be 60 ca db bd 34 06 63 3c 42 a7 44 3d
       -0.317212 -0.10731959 0.013856459 0.048011072
000040 cd 4d c1 bd cc dc 8c bb 40 1b aa 3c b4 06 25 be
       -0.094386674 -0.004298782 0.020764947 -0.16115838
000050 12 ce 36 bd a4 92 a4 be a3 9a 1f 3e 12 a0 21 3e
       -0.044630118 -0.32143128 0.15586333 0.15783718
000060 98 50 43 bd 7e 35 aa be 5d e9 3f 3d dc 37 c5 3d
       -0.047684282 -0.33243936 0.046853412 0.09629795
000070 df 4a 24 be b5 7c e2 be d0 3c fa bd eb 28 c4 3e
       -0.16044186 -0.4423577 -0.1221863 0.38312468
000080 11 c2 ff bd 8c 00 82 bd b3 cf 41 be 69 40 5f 3e
       -0.12488187 -0.063477606 -0.18926887 0.21801914
000090 1f 96 34 3d a4 7d 93 3e fc 9a 6d be f7 ce 70 3e
       0.04408848 0.28806794 -0.23203653 0.23516451
0000a0 0c 14 7e 3e 61 ac 83 3e df 3e 8c 3d 6a 93 95 3e
       0.24812335 0.25717452 0.06847929 0.2921403
0000b0 65 76 e4 bd a2 ae ec be 6b 45 c7 be 21 19 83 be
       -0.111553945 -0.46226984 -0.3892015 -0.2560511
0000c0 d9 12 18 bc 6f e2 8d bc 05 04 e3 bc 29 69 e5 3d
       -0.009281837 -0.017319886 -0.027711878 0.11201698
0000d0 3c 41 0e 3d 6c 24 3f be a3 ba 28 be d4 c0 73 bd
       0.03473018 -0.18666238 -0.16477446 -0.059510067
0000e0 06 eb 0e bd 91 b6 58 3c 45 aa df bd 2a c6 97 bd
       -0.034892105 0.013227121 -0.10921148 -0.07410844
0000f0 4a 49 07 3e dc a7 bc 3d 4d f7 01 bd 7f 9f 46 3c
       0.13211551 0.09211704 -0.031729985 0.012122988
000100 51 14 ff 3d 81 77 e0 3d c8 15 2f 3e b9 90 26 3e
       0.12455047 0.109602936 0.17098153 0.16266145
000110 ec 3c 8c be 56 e6 19 be 39 ca 48 be 45 c2 59 be
       -0.2739023 -0.15029272 -0.19608392 -0.21265514
000120 82 a0 46 be 50 e3 37 3d f8 e3 86 bd 7e fa 5a be
       -0.19397166 0.044894516 -0.0658645 -0.21384618
000130 3f 26 f3 bc 5e d1 ea 3d e1 61 4e 3d c7 40 1d bd
       -0.029681323 0.11465715 0.050386313 -0.038391855
000140 c2 64 88 be bd 79 0c be 5a 38 3d bd 10 cc 83 bb
       -0.26639372 -0.13718314 -0.04619632 -0.004022129
000150 9b 34 4b 3c 9a 27 bd bd cf c1 3c be bf 3b c5 bd
       0.012402679 -0.09236069 -0.18433307 -0.09630536
000160 e7 0f 8b 3d 5f 78 23 3d 95 29 37 be a7 20 8d bd
       0.067901425 0.039909717 -0.17886956 -0.068909936
000170 7e c7 d0 3d 15 06 3e 3e 2e f4 bd bd e1 bc 9d bd
       0.101943 0.18557008 -0.09275089 -0.077020414
000180 04 e5 d9 be ad 31 b2 bd 81 35 cc be ab 84 10 bf
       -0.42557538 -0.08700881 -0.3988457 -0.56452435
000190 f5 60 02 be 00 74 10 3e 73 82 2a be 20 80 cc be
       -0.12732299 0.1410675 -0.16651325 -0.39941502
0001a0 89 1c aa 39 2d 78 46 be 00 1e e0 be d7 7c 1b 3c
       0.00032446187 -0.19381781 -0.43772888 0.009490213
0001b0 43 a7 68 be bf ef b3 bd 1d c8 36 3d d4 fb 98 3d
       -0.22720055 -0.08785962 0.044624437 0.074699074
0001c0 dc cb 9a be 14 1c 83 be 88 7e 1c be c6 b9 17 bd
       -0.30233657 -0.2560736 -0.15282643 -0.0370424
0001d0 e9 08 96 3d 02 97 ce 3b e5 95 81 be ac 8f 9b 3c
       0.07325918 0.0063046226 -0.25309673 0.018989407
0001e0 57 10 39 3e 7b 13 5f 3e 53 b6 92 bd 93 da 9b 3c
       0.1807264 0.21784775 -0.07163682 0.019025123
0001f0 ff 3f 24 3e ca a8 43 3d 4f 84 a7 bd 79 13 81 bd
       0.16040038 0.04776839 -0.08179533 -0.06302542
000200 23 73 36 be 00 60 af 3c 4c 6f 26 3e c9 35 53 3e
       -0.17817359 0.021408081 0.16253394 0.20625986
000210 f9 87 3a bd fe 8c 31 bd a0 8f 21 3e 9a 49 e6 3d
       -0.04553983 -0.04334735 0.15777445 0.11244507
000220 69 88 b3 3d 8f 11 1e 3d 35 e9 c2 be a5 dd 63 be
       0.087662525 0.038590964 -0.38068548 -0.2225252
000230 47 16 88 bb 3b 4c 91 3c 2c b0 02 be 64 7f ae be
       -0.0041530463 0.017736545 -0.12762517 -0.34081566
000240 bc 9e 90 be b7 8a 25 be 84 b9 0f bd 79 a7 b6 bd
       -0.28246105 -0.16166197 -0.03508903 -0.089186616
000250 8a 27 96 be 90 47 8a bd 17 83 0a 3d 9e be 10 bc
       -0.2932704 -0.06751931 0.033816423 -0.008834509
000260 69 43 9e be b5 ea 90 be 9c 5b 8a be 0c 23 ca bd
       -0.30910805 -0.28304067 -0.27023017 -0.09869966
000270 a8 31 2b 3d cd 61 c1 bc 77 54 ea bd 0c 6c 85 bd
       0.041795403 -0.023606205 -0.11441892 -0.06514749
000280 e0 5e 3f be 5c 37 ae be 18 07 0b 3c bb 39 9c 3e
       -0.18688536 -0.3402661 0.008485578 0.30512795
000290 51 e5 62 be 12 0d ab be 80 d9 0d 3e ef 0f b7 3e
       -0.2215779 -0.3340841 0.13852501 0.35754344
0002a0 c0 f5 04 3d 55 2f bf be 1d 31 1f bc f4 66 94 3e
       0.032460928 -0.373408 -0.009716299 0.28984797
0002b0 e9 da 16 3c 38 81 19 bd 1d 97 6a 3e 0e 28 b8 3e
       0.009207466 -0.03747675 0.22909208 0.3596806
0002c0 3a 59 8d bd d6 7e 85 bd f2 80 c5 bb 52 64 ca 3d
       -0.06901784 -0.06518333 -0.0060273344 0.09882416
0002d0 c1 d4 24 bc 4d f2 a8 bd d7 4c d6 3c 1f 33 17 3e
       -0.01006049 -0.0824934 0.026159687 0.14765595
0002e0 af 50 aa 3c 75 29 a4 bd 08 2e b2 bd f0 cc 52 bd
       0.020790426 -0.0801572 -0.08700186 -0.051464975
0002f0 7a e5 b1 3c af 14 0a 3d 57 45 2b bd 9e ff e9 bd
       0.021715868 0.03371113 -0.041814175 -0.11425708
000300 55 05 98 bd fe 66 17 bc 15 fe 0d 3c b1 1d d0 3d
       -0.07422892 -0.009240864 0.008666535 0.10161913
000310 47 1e 86 bd 38 5b dc bd 3f 73 47 3d 45 bb 7b 3d
       -0.06548744 -0.10759586 0.04869389 0.06145789
000320 56 86 37 3b 9a 78 f4 bd 2a 90 17 be dd c9 98 bd
       0.0028003654 -0.119370654 -0.14801088 -0.07460377
000330 a0 79 30 3e cc 9b d0 3d f5 21 9a bd 43 3c 35 bd
       0.17233896 0.10185966 -0.07526008 -0.044246923
000340 30 83 9d bd a9 7b 64 bd 29 de 07 3e 43 52 84 3e
       -0.07691038 -0.055781994 0.13268341 0.2584401
000350 23 5d 11 be bb 9e 50 be 9b 7b 4d 3e 31 55 a8 3e
       -0.14195685 -0.20373051 0.20066683 0.32877496
000360 f3 bc 58 3e b0 dc ad 3d d4 08 c9 3c 60 57 93 3e
       0.21165828 0.084893584 0.024540342 0.287776
000370 d7 99 40 3e d6 e6 db 3c e9 de f0 be 0e cc f6 be
       0.18808685 0.02684347 -0.47045067 -0.48202556
000380 34 a9 ca bd c6 ac 80 bd e4 6d ec 3d d4 9a 82 3e
       -0.09895554 -0.06282954 0.115443975 0.2550875
000390 a9 c7 1a bd 72 74 60 bd fa 47 0d 3e 06 87 72 3e
       -0.037788067 -0.05479855 0.13796988 0.2368432
0003a0 b9 43 b9 3d fa e3 cd bd 74 9b 38 bd 24 88 19 3e
       0.0904612 -0.10053249 -0.045070127 0.1499334
0003b0 70 40 b1 3d 74 a4 08 be 2c 5c 46 be 17 0d 1d bb
       0.086548686 -0.13343984 -0.19371098 -0.00239641
0003c0 a0 7f 46 be 15 f8 8c bc 48 08 f4 bb e8 bf 0f be
       -0.19384623 -0.017208138 -0.0074472763 -0.1403805
0003d0 58 68 82 bd 00 12 2f 3d 07 51 55 3d 00 b8 d8 be
       -0.06367558 0.042741776 0.052079227 -0.4232788
0003e0 df cc 26 bd 55 8b f1 bd 02 c3 85 be 0d 1d c0 3d
       -0.040722724 -0.117941536 -0.26125342 0.09380541
0003f0 76 4f a7 3d 80 5f 01 bd 5d 59 44 3d 64 9c 85 3e
       0.08169453 -0.031585217 0.047936786 0.2609588

7.bias f4 [10]
000000 af 0a 28 3d 2d d6 a2 3d 06 fa 9e 3c d6 89 15 3d
       0.041025814 0.07951007 0.01940633 0.036508404
000010 b0 26 86 bc af bb 97 3c 0f f5 26 3d 5d dc 27 3d
       -0.01637587 0.018522112 0.04076105 0.04098164
000020 af 40 36 3b bc 7f 8e bc
       0.002780955 -0.017394893
